…
2019-09-25 10:03:28,937 (tts:295) INFO: ARGS: use_masking: True
2019-09-25 10:03:28,937 (tts:295) INFO: ARGS: use_scaled_pos_enc: True
2019-09-25 10:03:28,937 (tts:295) INFO: ARGS: use_second_target: False
2019-09-25 10:03:28,937 (tts:295) INFO: ARGS: use_speaker_embedding: False
2019-09-25 10:03:28,937 (tts:295) INFO: ARGS: valid_json: dump/tts/test_clean_22050_237_dev/data.json
2019-09-25 10:03:28,937 (tts:295) INFO: ARGS: verbose: 1
2019-09-25 10:03:28,937 (tts:295) INFO: ARGS: weight_decay: 0.0
2019-09-25 10:03:29,336 (tts:301) INFO: Transformer(
  (encoder): Encoder(
    (embed): Sequential(
      (0): Embedding(35, 384, padding_idx=0)
      (1): ScaledPositionalEncoding(
        (dropout): Dropout(p=0.1)
      )
    )
    (encoders): MultiSequential(
      (0): EncoderLayer(
        (self_attn): MultiHeadedAttention(
          (linear_q): Linear(in_features=384, out_features=384, bias=True)
          (linear_k): Linear(in_features=384, out_features=384, bias=True)
          (linear_v): Linear(in_features=384, out_features=384, bias=True)
          (linear_out): Linear(in_features=384, out_features=384, bias=True)
          (dropout): Dropout(p=0.1)
        )
        (feed_forward): PositionwiseFeedForward(
          (w_1): Linear(in_features=384, out_features=1536, bias=True)
          (w_2): Linear(in_features=1536, out_features=384, bias=True)
          (dropout): Dropout(p=0.1)
        )
        (norm1): LayerNorm(torch.Size([384]), eps=1e-12, elementwise_affine=True)
        (norm2): LayerNorm(torch.Size([384]), eps=1e-12, elementwise_affine=True)
        (dropout): Dropout(p=0.1)
      )
      (1): EncoderLayer(
        (self_attn): MultiHeadedAttention(
          (linear_q): Linear(in_features=384, out_features=384, bias=True)
          (linear_k): Linear(in_features=384, out_features=384, bias=True)
          (linear_v): Linear(in_features=384, out_features=384, bias=True)
          (linear_out): Linear(in_features=384, out_features=384, bias=True)
          (dropout): Dropout(p=0.1)
        )
        (feed_forward): PositionwiseFeedForward(
          (w_1): Linear(in_features=384, out_features=1536, bias=True)
          (w_2): Linear(in_features=1536, out_features=384, bias=True)
          (dropout): Dropout(p=0.1)
        )
        (norm1): LayerNorm(torch.Size([384]), eps=1e-12, elementwise_affine=True)
        (norm2): LayerNorm(torch.Size([384]), eps=1e-12, elementwise_affine=True)
        (dropout): Dropout(p=0.1)
      )
      (2): EncoderLayer(
        (self_attn): MultiHeadedAttention(
          (linear_q): Linear(in_features=384, out_features=384, bias=True)
          (linear_k): Linear(in_features=384, out_features=384, bias=True)
          (linear_v): Linear(in_features=384, out_features=384, bias=True)
          (linear_out): Linear(in_features=384, out_features=384, bias=True)
          (dropout): Dropout(p=0.1)
        )
        (feed_forward): PositionwiseFeedForward(
          (w_1): Linear(in_features=384, out_features=1536, bias=True)
          (w_2): Linear(in_features=1536, out_features=384, bias=True)
          (dropout): Dropout(p=0.1)
        )
        (norm1): LayerNorm(torch.Size([384]), eps=1e-12, elementwise_affine=True)
        (norm2): LayerNorm(torch.Size([384]), eps=1e-12, elementwise_affine=True)
        (dropout): Dropout(p=0.1)
      )
      (3): EncoderLayer(
        (self_attn): MultiHeadedAttention(
          (linear_q): Linear(in_features=384, out_features=384, bias=True)
          (linear_k): Linear(in_features=384, out_features=384, bias=True)
          (linear_v): Linear(in_features=384, out_features=384, bias=True)
          (linear_out): Linear(in_features=384, out_features=384, bias=True)
          (dropout): Dropout(p=0.1)
        )
        (feed_forward): PositionwiseFeedForward(
          (w_1): Linear(in_features=384, out_features=1536, bias=True)
          (w_2): Linear(in_features=1536, out_features=384, bias=True)
          (dropout): Dropout(p=0.1)
        )
        (norm1): LayerNorm(torch.Size([384]), eps=1e-12, elementwise_affine=True)
        (norm2): LayerNorm(torch.Size([384]), eps=1e-12, elementwise_affine=True)
        (dropout): Dropout(p=0.1)
      )
      (4): EncoderLayer(
        (self_attn): MultiHeadedAttention(
          (linear_q): Linear(in_features=384, out_features=384, bias=True)
          (linear_k): Linear(in_features=384, out_features=384, bias=True)
          (linear_v): Linear(in_features=384, out_features=384, bias=True)
          (linear_out): Linear(in_features=384, out_features=384, bias=True)
          (dropout): Dropout(p=0.1)
        )
        (feed_forward): PositionwiseFeedForward(
          (w_1): Linear(in_features=384, out_features=1536, bias=True)
          (w_2): Linear(in_features=1536, out_features=384, bias=True)
          (dropout): Dropout(p=0.1)
        )
        (norm1): LayerNorm(torch.Size([384]), eps=1e-12, elementwise_affine=True)
        (norm2): LayerNorm(torch.Size([384]), eps=1e-12, elementwise_affine=True)
        (dropout): Dropout(p=0.1)
      )
      (5): EncoderLayer(
        (self_attn): MultiHeadedAttention(
          (linear_q): Linear(in_features=384, out_features=384, bias=True)
          (linear_k): Linear(in_features=384, out_features=384, bias=True)
          (linear_v): Linear(in_features=384, out_features=384, bias=True)
          (linear_out): Linear(in_features=384, out_features=384, bias=True)
          (dropout): Dropout(p=0.1)
        )
        (feed_forward): PositionwiseFeedForward(
          (w_1): Linear(in_features=384, out_features=1536, bias=True)
          (w_2): Linear(in_features=1536, out_features=384, bias=True)
          (dropout): Dropout(p=0.1)
        )
        (norm1): LayerNorm(torch.Size([384]), eps=1e-12, elementwise_affine=True)
        (norm2): LayerNorm(torch.Size([384]), eps=1e-12, elementwise_affine=True)
        (dropout): Dropout(p=0.1)
      )
    )
  )
  (decoder): Decoder(
    (embed): Sequential(
      (0): Sequential(
        (0): Prenet(
          (prenet): ModuleList(
            (0): Sequential(
              (0): Linear(in_features=80, out_features=256, bias=True)
              (1): ReLU()
            )
            (1): Sequential(
              (0): Linear(in_features=256, out_features=256, bias=True)
              (1): ReLU()
            )
          )
        )
        (1): Linear(in_features=256, out_features=384, bias=True)
      )
      (1): ScaledPositionalEncoding(
        (dropout): Dropout(p=0.1)
      )
    )
    (decoders): MultiSequential(
      (0): DecoderLayer(
        (self_attn): MultiHeadedAttention(
          (linear_q): Linear(in_features=384, out_features=384, bias=True)
          (linear_k): Linear(in_features=384, out_features=384, bias=True)
          (linear_v): Linear(in_features=384, out_features=384, bias=True)
          (linear_out): Linear(in_features=384, out_features=384, bias=True)
          (dropout): Dropout(p=0.1)
        )
        (src_attn): MultiHeadedAttention(
          (linear_q): Linear(in_features=384, out_features=384, bias=True)
          (linear_k): Linear(in_features=384, out_features=384, bias=True)
          (linear_v): Linear(in_features=384, out_features=384, bias=True)
          (linear_out): Linear(in_features=384, out_features=384, bias=True)
          (dropout): Dropout(p=0.1)
        )
        (feed_forward): PositionwiseFeedForward(
          (w_1): Linear(in_features=384, out_features=1536, bias=True)
          (w_2): Linear(in_features=1536, out_features=384, bias=True)
          (dropout): Dropout(p=0.1)
        )
        (norm1): LayerNorm(torch.Size([384]), eps=1e-12, elementwise_affine=True)
        (norm2): LayerNorm(torch.Size([384]), eps=1e-12, elementwise_affine=True)
        (norm3): LayerNorm(torch.Size([384]), eps=1e-12, elementwise_affine=True)
        (dropout): Dropout(p=0.1)
      )
      (1): DecoderLayer(
        (self_attn): MultiHeadedAttention(
          (linear_q): Linear(in_features=384, out_features=384, bias=True)
          (linear_k): Linear(in_features=384, out_features=384, bias=True)
          (linear_v): Linear(in_features=384, out_features=384, bias=True)
          (linear_out): Linear(in_features=384, out_features=384, bias=True)
          (dropout): Dropout(p=0.1)
        )
        (src_attn): MultiHeadedAttention(
          (linear_q): Linear(in_features=384, out_features=384, bias=True)
          (linear_k): Linear(in_features=384, out_features=384, bias=True)
          (linear_v): Linear(in_features=384, out_features=384, bias=True)
          (linear_out): Linear(in_features=384, out_features=384, bias=True)
          (dropout): Dropout(p=0.1)
        )
        (feed_forward): PositionwiseFeedForward(
          (w_1): Linear(in_features=384, out_features=1536, bias=True)
          (w_2): Linear(in_features=1536, out_features=384, bias=True)
          (dropout): Dropout(p=0.1)
        )
        (norm1): LayerNorm(torch.Size([384]), eps=1e-12, elementwise_affine=True)
        (norm2): LayerNorm(torch.Size([384]), eps=1e-12, elementwise_affine=True)
        (norm3): LayerNorm(torch.Size([384]), eps=1e-12, elementwise_affine=True)
        (dropout): Dropout(p=0.1)
      )
      (2): DecoderLayer(
        (self_attn): MultiHeadedAttention(
          (linear_q): Linear(in_features=384, out_features=384, bias=True)
          (linear_k): Linear(in_features=384, out_features=384, bias=True)
          (linear_v): Linear(in_features=384, out_features=384, bias=True)
          (linear_out): Linear(in_features=384, out_features=384, bias=True)
          (dropout): Dropout(p=0.1)
        )
        (src_attn): MultiHeadedAttention(
          (linear_q): Linear(in_features=384, out_features=384, bias=True)
          (linear_k): Linear(in_features=384, out_features=384, bias=True)
          (linear_v): Linear(in_features=384, out_features=384, bias=True)
          (linear_out): Linear(in_features=384, out_features=384, bias=True)
          (dropout): Dropout(p=0.1)
        )
        (feed_forward): PositionwiseFeedForward(
          (w_1): Linear(in_features=384, out_features=1536, bias=True)
          (w_2): Linear(in_features=1536, out_features=384, bias=True)
          (dropout): Dropout(p=0.1)
        )
        (norm1): LayerNorm(torch.Size([384]), eps=1e-12, elementwise_affine=True)
        (norm2): LayerNorm(torch.Size([384]), eps=1e-12, elementwise_affine=True)
        (norm3): LayerNorm(torch.Size([384]), eps=1e-12, elementwise_affine=True)
        (dropout): Dropout(p=0.1)
      )
      (3): DecoderLayer(
        (self_attn): MultiHeadedAttention(
          (linear_q): Linear(in_features=384, out_features=384, bias=True)
          (linear_k): Linear(in_features=384, out_features=384, bias=True)
          (linear_v): Linear(in_features=384, out_features=384, bias=True)
          (linear_out): Linear(in_features=384, out_features=384, bias=True)
          (dropout): Dropout(p=0.1)
        )
        (src_attn): MultiHeadedAttention(
          (linear_q): Linear(in_features=384, out_features=384, bias=True)
          (linear_k): Linear(in_features=384, out_features=384, bias=True)
          (linear_v): Linear(in_features=384, out_features=384, bias=True)
          (linear_out): Linear(in_features=384, out_features=384, bias=True)
          (dropout): Dropout(p=0.1)
        )
        (feed_forward): PositionwiseFeedForward(
          (w_1): Linear(in_features=384, out_features=1536, bias=True)
          (w_2): Linear(in_features=1536, out_features=384, bias=True)
          (dropout): Dropout(p=0.1)
        )
        (norm1): LayerNorm(torch.Size([384]), eps=1e-12, elementwise_affine=True)
        (norm2): LayerNorm(torch.Size([384]), eps=1e-12, elementwise_affine=True)
        (norm3): LayerNorm(torch.Size([384]), eps=1e-12, elementwise_affine=True)
        (dropout): Dropout(p=0.1)
      )
      (4): DecoderLayer(
        (self_attn): MultiHeadedAttention(
          (linear_q): Linear(in_features=384, out_features=384, bias=True)
          (linear_k): Linear(in_features=384, out_features=384, bias=True)
          (linear_v): Linear(in_features=384, out_features=384, bias=True)
          (linear_out): Linear(in_features=384, out_features=384, bias=True)
          (dropout): Dropout(p=0.1)
        )
        (src_attn): MultiHeadedAttention(
          (linear_q): Linear(in_features=384, out_features=384, bias=True)
          (linear_k): Linear(in_features=384, out_features=384, bias=True)
          (linear_v): Linear(in_features=384, out_features=384, bias=True)
          (linear_out): Linear(in_features=384, out_features=384, bias=True)
          (dropout): Dropout(p=0.1)
        )
        (feed_forward): PositionwiseFeedForward(
          (w_1): Linear(in_features=384, out_features=1536, bias=True)
          (w_2): Linear(in_features=1536, out_features=384, bias=True)
          (dropout): Dropout(p=0.1)
        )
        (norm1): LayerNorm(torch.Size([384]), eps=1e-12, elementwise_affine=True)
        (norm2): LayerNorm(torch.Size([384]), eps=1e-12, elementwise_affine=True)
        (norm3): LayerNorm(torch.Size([384]), eps=1e-12, elementwise_affine=True)
        (dropout): Dropout(p=0.1)
      )
      (5): DecoderLayer(
        (self_attn): MultiHeadedAttention(
          (linear_q): Linear(in_features=384, out_features=384, bias=True)
          (linear_k): Linear(in_features=384, out_features=384, bias=True)
          (linear_v): Linear(in_features=384, out_features=384, bias=True)
          (linear_out): Linear(in_features=384, out_features=384, bias=True)
          (dropout): Dropout(p=0.1)
        )
        (src_attn): MultiHeadedAttention(
          (linear_q): Linear(in_features=384, out_features=384, bias=True)
          (linear_k): Linear(in_features=384, out_features=384, bias=True)
          (linear_v): Linear(in_features=384, out_features=384, bias=True)
          (linear_out): Linear(in_features=384, out_features=384, bias=True)
          (dropout): Dropout(p=0.1)
        )
        (feed_forward): PositionwiseFeedForward(
          (w_1): Linear(in_features=384, out_features=1536, bias=True)
          (w_2): Linear(in_features=1536, out_features=384, bias=True)
          (dropout): Dropout(p=0.1)
        )
        (norm1): LayerNorm(torch.Size([384]), eps=1e-12, elementwise_affine=True)
        (norm2): LayerNorm(torch.Size([384]), eps=1e-12, elementwise_affine=True)
        (norm3): LayerNorm(torch.Size([384]), eps=1e-12, elementwise_affine=True)
        (dropout): Dropout(p=0.1)
      )
    )
  )
  (feat_out): Linear(in_features=384, out_features=80, bias=True)
  (prob_out): Linear(in_features=384, out_features=1, bias=True)
  (postnet): Postnet(
    (postnet): ModuleList(
      (0): Sequential(
        (0): Conv1d(80, 256, kernel_size=(5,), stride=(1,), padding=(2,), bias=False)
        (1): BatchNorm1d(256, eps=1e-05, momentum=0.1, affine=True, track_running_stats=True)
        (2): Tanh()
        (3): Dropout(p=0.5)
      )
      (1): Sequential(
        (0): Conv1d(256, 256, kernel_size=(5,), stride=(1,), padding=(2,), bias=False)
        (1): BatchNorm1d(256, eps=1e-05, momentum=0.1, affine=True, track_running_stats=True)
        (2): Tanh()
        (3): Dropout(p=0.5)
      )
      (2): Sequential(
        (0): Conv1d(256, 256, kernel_size=(5,), stride=(1,), padding=(2,), bias=False)
        (1): BatchNorm1d(256, eps=1e-05, momentum=0.1, affine=True, track_running_stats=True)
        (2): Tanh()
        (3): Dropout(p=0.5)
      )
      (3): Sequential(
        (0): Conv1d(256, 256, kernel_size=(5,), stride=(1,), padding=(2,), bias=False)
        (1): BatchNorm1d(256, eps=1e-05, momentum=0.1, affine=True, track_running_stats=True)
        (2): Tanh()
        (3): Dropout(p=0.5)
      )
      (4): Sequential(
        (0): Conv1d(256, 80, kernel_size=(5,), stride=(1,), padding=(2,), bias=False)
        (1): BatchNorm1d(80, eps=1e-05, momentum=0.1, affine=True, track_running_stats=True)
        (2): Dropout(p=0.5)
      )
    )
  )
  (criterion): TransformerLoss()
  (attn_criterion): GuidedMultiHeadAttentionLoss()
)
2019-09-25 10:03:29,338 (tts:314) INFO: reading model parameters from exp/tts/test_clean_22050_237_train_no_dev_pytorch_tts_train_pytorch_transformer.fine-tuning.rev0/results/model.0th.copy
2019-09-25 10:03:36,410 (batchfy:340) INFO: count is auto detected as bin
…
